…
val_data_path = f"{data_path}/data_val.bed"
internal_test_data_path = f"{data_path}/test_df_internal.bed"
external_test_data_path = f"{data_path}/test_df_external.bed"

config_file_path = "config.py"


--> train_data_paths_seq = {'bed_file_training_df': '../output/experiment_name/training_data/training_df_seq.bed'}
--> train_data_paths_bimodal = {'bed_file_bound_sample_all_df': '../output/experiment_name/training_data/training_df_bimodal_bound.bed', 'bed_file_unbound_genome_df': '../output/experiment_name/training_data/training_df_bimodal_unbound.bed'}

--> Training seq
DEVICE = cuda
seq_network(
  (conv1): Conv1d(4, 32, kernel_size=(21,), stride=(1,), padding=same)
  (relu1): ReLU()
  (batch_norm1): BatchNorm1d(32, eps=1e-05, momentum=0.1, affine=True, track_running_stats=True)
  (maxpool1): MaxPool1d(kernel_size=2, stride=2, padding=0, dilation=1, ceil_mode=False)
  (dropout2): Dropout(p=0.5, inplace=False)
  (conv2): Conv1d(32, 64, kernel_size=(3,), stride=(1,), padding=same)
  (relu2): ReLU()
  (batch_norm2): BatchNorm1d(64, eps=1e-05, momentum=0.1, affine=True, track_running_stats=True)
  (maxpool2): MaxPool1d(kernel_size=2, stride=2, padding=0, dilation=1, ceil_mode=False)
  (dropout3): Dropout(p=0.5, inplace=False)
  (conv3): Conv1d(64, 128, kernel_size=(3,), stride=(1,), padding=same)
  (relu3): ReLU()
  (batch_norm3): BatchNorm1d(128, eps=1e-05, momentum=0.1, affine=True, track_running_stats=True)
  (maxpool3): MaxPool1d(kernel_size=5, stride=5, padding=0, dilation=1, ceil_mode=False)
  (dropout4): Dropout(p=0.5, inplace=False)
  (conv4): Conv1d(128, 64, kernel_size=(3,), stride=(1,), padding=same)
  (relu4): ReLU()
  (batch_norm4): BatchNorm1d(64, eps=1e-05, momentum=0.1, affine=True, track_running_stats=True)
  (maxpool4): MaxPool1d(kernel_size=5, stride=5, padding=0, dilation=1, ceil_mode=False)
  (dropout_dilation_list): ModuleList(
    (0-5): 6 x Dropout(p=0.5, inplace=False)
  )
  (conv_dilation_list): ModuleList(
    (0): Conv1d(64, 64, kernel_size=(3,), stride=(1,), padding=same, dilation=(2,))
    (1): Conv1d(64, 64, kernel_size=(3,), stride=(1,), padding=same, dilation=(4,))
    (2): Conv1d(64, 64, kernel_size=(3,), stride=(1,), padding=same, dilation=(8,))
    (3): Conv1d(64, 64, kernel_size=(3,), stride=(1,), padding=same, dilation=(16,))
    (4): Conv1d(64, 64, kernel_size=(3,), stride=(1,), padding=same, dilation=(32,))
    (5): Conv1d(64, 64, kernel_size=(3,), stride=(1,), padding=same, dilation=(64,))
  )
  (relu_dilation_list): ModuleList(
    (0-5): 6 x ReLU()
  )
  (bn_dilation_list): ModuleList(
    (0-5): 6 x BatchNorm1d(64, eps=1e-05, momentum=0.1, affine=True, track_running_stats=True)
  )
  (chromatin_track_conv_list): ModuleList(
    (0): Conv1d(64, 1, kernel_size=(5,), stride=(1,), padding=same)
  )
  (chromatin_track_activation_list): ModuleList(
    (0): ReLU()
  )
)
training_df_seq
      chrom      start        end        type  label       id
0      chr1   73002550   73002950  neg_genome      0  1530687
1      chr1  134593500  134593900  neg_genome      0  2758003
2      chr1  115139150  115139550  neg_genome      0  2370715
3      chr1   58217250   58217650  neg_genome      0  1236007
…
  LOSS train = 0.27445318006700087 validation = 0.27445318006700087
  Finding best model:
  Seq best model = 1 Val loss = 0.27
Finding best seq model....
Best seq model found = ../output/experiment_name/train_out/seqnet/best_seq_model_epoch_1_val_loss_0.27.pt

--> Training bimodal
DEVICE = cuda
####################
../output/experiment_name/train_out/seqnet/best_seq_model_epoch_1_val_loss_0.27.pt
####################
init - bimodal_network_GAT
Proxy(getattr_1)
Proxy(getattr_2)
Proxy(getattr_3)
Proxy(getattr_4)
Proxy(getattr_1)
Proxy(getattr_2)
Proxy(getattr_3)
Proxy(getattr_4)
bimodal_network_GAT(
  (base_model): seq_network(
    (conv1): Conv1d(4, 32, kernel_size=(21,), stride=(1,), padding=same)
    (relu1): ReLU()
    (batch_norm1): BatchNorm1d(32, eps=1e-05, momentum=0.1, affine=True, track_running_stats=True)
    (maxpool1): MaxPool1d(kernel_size=2, stride=2, padding=0, dilation=1, ceil_mode=False)
    (dropout2): Dropout(p=0.5, inplace=False)
    (conv2): Conv1d(32, 64, kernel_size=(3,), stride=(1,), padding=same)
    (relu2): ReLU()
    (batch_norm2): BatchNorm1d(64, eps=1e-05, momentum=0.1, affine=True, track_running_stats=True)
    (maxpool2): MaxPool1d(kernel_size=2, stride=2, padding=0, dilation=1, ceil_mode=False)
    (dropout3): Dropout(p=0.5, inplace=False)
    (conv3): Conv1d(64, 128, kernel_size=(3,), stride=(1,), padding=same)
    (relu3): ReLU()
    (batch_norm3): BatchNorm1d(128, eps=1e-05, momentum=0.1, affine=True, track_running_stats=True)
    (maxpool3): MaxPool1d(kernel_size=5, stride=5, padding=0, dilation=1, ceil_mode=False)
    (dropout4): Dropout(p=0.5, inplace=False)
    (conv4): Conv1d(128, 64, kernel_size=(3,), stride=(1,), padding=same)
    (relu4): ReLU()
    (batch_norm4): BatchNorm1d(64, eps=1e-05, momentum=0.1, affine=True, track_running_stats=True)
    (maxpool4): MaxPool1d(kernel_size=5, stride=5, padding=0, dilation=1, ceil_mode=False)
  )
  (conv1): Conv1d(64, 128, kernel_size=(3,), stride=(1,), padding=same)
  (batch_norm1): BatchNorm1d(128, eps=1e-05, momentum=0.1, affine=True, track_running_stats=True)
  (maxpool1): MaxPool1d(kernel_size=2, stride=2, padding=0, dilation=1, ceil_mode=False)
  (conv2): Conv1d(128, 128, kernel_size=(3,), stride=(1,), padding=same)
  (batch_norm2): BatchNorm1d(128, eps=1e-05, momentum=0.1, affine=True, track_running_stats=True)
  (maxpool2): MaxPool1d(kernel_size=2, stride=2, padding=0, dilation=1, ceil_mode=False)
  (chrom_model): GAT_network(
    (att): ParameterList(
        (0): Object of type: GraphAttention
        (1): Object of type: GraphAttention
        (2): Object of type: GraphAttention
        (3): Object of type: GraphAttention
        (4): Object of type: GraphAttention
…
              (0): Parameter containing: [torch.float32 of size 32x1]
              (1): Parameter containing: [torch.float32 of size 32x1]
          )
          (3): ParameterList(
              (0): Parameter containing: [torch.float32 of size 32x1]
              (1): Parameter containing: [torch.float32 of size 32x1]
          )
        )
      )
    )
    (bn_layers): ParameterList(
        (0): Object of type: BatchNorm1d
        (1): Object of type: BatchNorm1d
        (2): Object of type: BatchNorm1d
        (3): Object of type: BatchNorm1d
        (4): Object of type: BatchNorm1d
      (0): BatchNorm1d(26, eps=1e-05, momentum=0.1, affine=True, track_running_stats=True)
      (1): BatchNorm1d(26, eps=1e-05, momentum=0.1, affine=True, track_running_stats=True)
      (2): BatchNorm1d(26, eps=1e-05, momentum=0.1, affine=True, track_running_stats=True)
      (3): BatchNorm1d(26, eps=1e-05, momentum=0.1, affine=True, track_running_stats=True)
      (4): BatchNorm1d(26, eps=1e-05, momentum=0.1, affine=True, track_running_stats=True)
    )
    (permute): permute()
    (conv1): Conv1d(128, 64, kernel_size=(3,), stride=(1,), padding=same)
    (batch_norm1): BatchNorm1d(64, eps=1e-05, momentum=0.1, affine=True, track_running_stats=True)
    (maxpool1): MaxPool1d(kernel_size=2, stride=2, padding=0, dilation=1, ceil_mode=False)
    (dropout2): Dropout(p=0.5, inplace=False)
    (conv2): Conv1d(64, 32, kernel_size=(3,), stride=(1,), padding=same)
    (batch_norm2): BatchNorm1d(32, eps=1e-05, momentum=0.1, affine=True, track_running_stats=True)
    (maxpool2): MaxPool1d(kernel_size=5, stride=5, padding=0, dilation=1, ceil_mode=False)
    (dropout3): Dropout(p=0.5, inplace=False)
    (conv3): Conv1d(32, 1, kernel_size=(3,), stride=(1,), padding=same)
    (batch_norm3): BatchNorm1d(1, eps=1e-05, momentum=0.1, affine=True, track_running_stats=True)
    (maxpool3): MaxPool1d(kernel_size=2, stride=2, padding=0, dilation=1, ceil_mode=False)
  )
  (sigmoid): Sigmoid()
)
training_df_bimodal_bound
(333, 5)
label
1    333
Name: count, dtype: int64
training_df_bimodal_unbound
(1332, 5)
label
0    1332
Name: count, dtype: int64
  bound_sample_all_dataset data size = 333
  unbound_genome_dataset data size = 1332
…
